…
          "base_uri": "https://localhost:8080/"
        },
        "id": "p2S4ZlStADTO",
        "outputId": "f589756f-6970-4551-efb3-65ae295b82c8"
      },
      "execution_count": null,
      "outputs": [
        {
          "output_type": "stream",
          "name": "stdout",
          "text": [
            "Model: \"sequential\"\n",
            "_________________________________________________________________\n",
            " Layer (type)                Output Shape              Param #   \n",
            "=================================================================\n",
            " conv2d (Conv2D)             (None, 224, 224, 32)      896       \n",
            "                                                                 \n",
            " batch_normalization (BatchN  (None, 224, 224, 32)     128       \n",
            " ormalization)                                                   \n",
            "                                                                 \n",
            " conv2d_1 (Conv2D)           (None, 224, 224, 32)      9248      \n",
            "                                                                 \n",
            " batch_normalization_1 (Batc  (None, 224, 224, 32)     128       \n",
            " hNormalization)                                                 \n",
            "                                                                 \n",
            " max_pooling2d (MaxPooling2D  (None, 112, 112, 32)     0         \n",
            " )                                                               \n",
            "                                                                 \n",
            " conv2d_2 (Conv2D)           (None, 112, 112, 64)      73792     \n",
            "                                                                 \n",
            " batch_normalization_2 (Batc  (None, 112, 112, 64)     256       \n",
            " hNormalization)                                                 \n",
            "                                                                 \n",
            " conv2d_3 (Conv2D)           (None, 112, 112, 64)      147520    \n",
            "                                                                 \n",
            " batch_normalization_3 (Batc  (None, 112, 112, 64)     256       \n",
            " hNormalization)                                                 \n",
            "                                                                 \n",
            " max_pooling2d_1 (MaxPooling  (None, 56, 56, 64)       0         \n",
            " 2D)                                                             \n",
            "                                                                 \n",
            " conv2d_4 (Conv2D)           (None, 56, 56, 128)       663680    \n",
            "                                                                 \n",
            " batch_normalization_4 (Batc  (None, 56, 56, 128)      512       \n",
            " hNormalization)                                                 \n",
            "                                                                 \n",
            " conv2d_5 (Conv2D)           (None, 56, 56, 128)       1327232   \n",
            "                                                                 \n",
            " batch_normalization_5 (Batc  (None, 56, 56, 128)      512       \n",
            " hNormalization)                                                 \n",
            "                                                                 \n",
            " max_pooling2d_2 (MaxPooling  (None, 28, 28, 128)      0         \n",
            " 2D)                                                             \n",
            "                                                                 \n",
            " conv2d_6 (Conv2D)           (None, 28, 28, 256)       10617088  \n",
            "                                                                 \n",
            " batch_normalization_6 (Batc  (None, 28, 28, 256)      1024      \n",
            " hNormalization)                                                 \n",
            "                                                                 \n",
            " conv2d_7 (Conv2D)           (None, 28, 28, 256)       21233920  \n",
            "                                                                 \n",
            " batch_normalization_7 (Batc  (None, 28, 28, 256)      1024      \n",
            " hNormalization)                                                 \n",
            "                                                                 \n",
            " max_pooling2d_3 (MaxPooling  (None, 14, 14, 256)      0         \n",
            " 2D)                                                             \n",
            "                                                                 \n",
            " flatten (Flatten)           (None, 50176)             0         \n",
            "                                                                 \n",
            " dense (Dense)               (None, 512)               25690624  \n",
            "                                                                 \n",
            " dropout (Dropout)           (None, 512)               0         \n",
            "                                                                 \n",
            " dense_1 (Dense)             (None, 5)                 2565      \n",
            "                                                                 \n",
            "=================================================================\n",
            "Total params: 59,770,405\n",
            "Trainable params: 59,768,485\n",
            "Non-trainable params: 1,920\n",
            "_________________________________________________________________\n"
          ]
…
